adaptive_pca_3dreproject/Skelite/skelite_scripted.pt (torch, 170805 bytes, 7 tensors)

weight f4 [32, 3, 3, 3]
0.10544721 0.14254849 -0.16548254 -0.11618033 -0.061621115 -0.004577236 -0.0073697264 0.08211009
-0.07864231 0.041353006 -0.10205335 -0.09443593 -0.25084835 -0.17029716 -0.16662097 -0.035889804
-0.050119728 -0.069034524 -0.10384497 -0.0782224 0.18770756 0.21737872 0.049654737 0.25352734
0.036908776 0.09175511 0.18170509 -0.010189839 -0.1063783 -0.080572955 -0.007378178 0.09696874
-0.094276175 -0.09026365 -0.09953579 -0.1573312 -0.032282013 0.1800847 0.042883247 0.14362548
-0.08985211 -0.092092134 0.020777961 -0.14602724 -0.10797266 -0.0989831 0.16825464 0.18078211
-0.03546894 0.035912696 0.22850889 0.20092033 0.23285203 0.13901867 0.14870155 -0.206402
0.08477945 -0.20010021 -0.16058172 -0.092613645 0.14235519 0.030024229 -0.062584355 0.061408766
0.11635586 -0.014504985 0.043506145 0.066064484 0.17122182 0.1875101 -0.105296455 0.019698186
0.060668916 0.16512214 0.15642945 0.19501156 0.01768843 -0.16583039 -0.009338868 -0.1672377
-0.27365893 0.16122283 0.25035116 -0.088718556 0.098079324 -0.029223178 0.03151181 -0.008720453
0.12757629 0.05252731 0.1390577 0.24033812 0.16541322 0.07403383 -0.15755181 -0.25900444
0.1767017 0.09454509 -0.16451934 -0.05782314 0.31756157 0.15520447 -0.09141128 -0.052020196
-0.39145935 0.053112928 -0.18027002 -0.2955457 0.092752196 3.978208e-38 0.22599123 0.19358502
0.4392202 0.19975355 0.17129824 0.065434925 0.16899349 0.11198343 4.0515384e-38 0.34912977
0.15497772 0.5315749 -0.06757112 0.13052501 0.04212805 0.10324951 -0.39919356 -2.1190531
-0.10558436 -0.21598086 -1.7490821 -0.39050856 -0.102414325 -0.33039126 -0.48066658 0.15737553
0.11472048 0.070789956 0.13805172 -4.2420948e-38 0.23986097 0.2268872 0.34810942 0.15510733
0.004461249 0.01823759 0.21789625 0.097911805 -2.356326e-38 -0.08931826 -0.07463197 0.0036938572
0.1302089 0.04905348 -0.22970268 -0.5661695 -0.06884235 -1.6309202 -0.176414 -0.70858777
-0.14919695 -0.057616226 -0.13422064 -0.18898195 0.03837238 0.06359477 -0.14697096 0.12528746
-0.20519817 -0.16621722 0.37091917 -0.010536588 0.19967626 0.09631138 -0.07580119 0.18747823
0.055346183 -0.044813614 0.15413098 -0.17721236 0.0075219315 -0.037104804 0.18799026 0.019947657
0.1342021 0.098447755 -0.1403844 -0.1411321 -0.2920155 0.27415758 0.2246177 0.33560967
-0.08783026 0.00017010249 -0.081355944 -0.13564967 -0.09319507 0.004106835 -0.09280503 0.043521266
-0.010821821 0.12915377 -0.16766071 -0.099601045 -0.23394991 0.13009393 -0.09630544 0.24040602
0.15603897 0.10252289 -0.034987032 -0.07475953 0.05352961 -0.18368486 -0.07415657 0.0063128443
-0.14510955 -0.12659648 0.22372991 -0.16197866 -0.03547262 0.2491338 0.013700818 -0.09914024
-0.22085272 0.17317395 -0.12205889 0.018906772 0.0056841993 0.010235614 0.04811533 0.16493544
0.025167922 0.22604874 0.20580025 -0.18638867 0.11753361 -0.11040198 -0.09203253 0.08507969
0.09466795 0.14956726 -0.010314246 -0.02015654 0.05955655 -0.24734208 0.08859406 -0.2255337
0.000483078 -0.13056035 -0.09724815 0.0995861 0.08973362 -0.095134996 -0.15561996 -0.077140905
00000000: b5f4 d73d 3bf8 113e 4174 29be f4ef edbd
00000010: 6c66 7cbd a3fc 95bb bf7d f1bb 5629 a83d
00000020: 380f a1bd c561 293d 5901 d1bd a067 c1bd
00000030: 326f 80be 6162 2ebe b09e 2abe 3001 13bd
00000040: 584a 4dbd f961 8dbd acac d4bd 1133 a0bd
00000050: 6936 403e 8798 5e3e c462 4b3d 56ce 813e
00000060: a82d 173d 1aea bb3d e610 3a3e 48f3 26bc
00000070: dedc d9bd 6f03 a5bd a5c4 f1bb 8c97 c63d
00000080: de13 c1bd 26dc b8bd 6cd9 cbbd 6e1b 21be
00000090: 253a 04bd 2068 383e 58a6 2f3d 8f12 133e
000000a0: 6204 b8bd cd9a bcbd 8b36 aa3c 2a88 15be
000000b0: c520 ddbd a7b7 cabd f24a 2c3e f21e 393e
000000c0: e147 11bd 3119 133d 3cfe 693e 0fbe 4d3e
000000d0: c370 6e3e e95a 0e3e 3845 183e 0c5b 53be
000000e0: d9a0 ad3d 12e7 4cbe 896f 24be 39ac bdbd
000000f0: 8fc5 113e 5ff5 f53c 3a2c 80bd c287 7b3d
00000100: fb4b ee3d 51a6 6dbc 8033 323d d14c 873d
00000110: c654 2f3e a602 403e aba5 d7bd 175e a13c
00000120: f87f 783d c715 293e 0b2f 203e 1cb1 473e
00000130: 54e7 903c 71cf 29be 0d02 19bc 5c40 2bbe
00000140: 061d 8cbe 9917 253e 072e 803e 13b2 b5bd
00000150: d0dd c83d 7265 efbc 8712 013d 3be0 0ebc
00000160: 5ca3 023e e026 573d 2465 0e3e 321b 763e
00000170: 1562 293e 0c9f 973d 4355 21be 3b9c 84be
00000180: 4af1 343e dba0 c13d c277 28be f5d7 6cbd
00000190: 6e97 a23e eced 1e3e d635 bbbd 2113 55bd
000001a0: 5c6d c8be f18c 593d b498 38be c451 97be
000001b0: ddf4 bd3d 2098 5801 3f6a 673e 273b 463e
000001c0: 78e1 e03e 328c 4c3e ce68 2f3e bf02 863d
000001d0: a10c 2d3e 9257 e53d 3496 5c01 23c1 b23e
000001e0: 7bb2 1e3e 4b15 083f ba62 8abd 59a8 053e
000001f0: 768e 2c3d 7b74 d33d 1963 ccbe 919e 07c0
00000200: 9d3c d8bd 162a 5dbe ece1 dfbf bdf0 c7be
00000210: 9abe d1bd 0b29 a9be ee19 f6be 0d27 213e
00000220: 92f2 ea3d 53fa 903d 6e5d 0d3e 2cf6 6681
00000230: 1d9e 753e 1e55 683e 663b b23e 75d4 1e3e
00000240: ab2f 923b 0067 953c 3220 5f3e fc85 c83d
00000250: 644a 0081 7eec b6bd a5d8 98bd a414 723b
00000260: 7b55 053e 4dec 483d 2e37 6bbe 7cf0 10bf
00000270: 38fd 8cbd fec1 d0bf dfa5 34be 0266 35bf
00000280: 16c7 18be fefe 6bbd 2371 09be 7c84 41be
00000290: 5b2c 1d3d fa3d 823d 8e7f 16be 5b4b 003e
000002a0: 781f 52be d934 2abe 1ee9 bd3e a7a1 2cbc
000002b0: ef77 4c3e e73e c53d a83d 9bbd 4bfa 3f3e
000002c0: aeb2 623d 7b8e 37bd 83d4 1d3e 2877 35be
000002d0: 897a f63b 35fb 17bd 8580 403e 4569 a33c
000002e0: 466c 093e fa9e c93d eec0 0fbe ef84 10be
000002f0: 0e83 95be 625e 8c3e 2f02 663e 08d5 ab3e
00000300: 5ae0 b3bd 8a5d 3239 f29d a6bd bfe7 0abe
00000310: 0fdd bebd a192 863b 9010 bebd 5b43 323d
00000320: 024e 31bc e340 043e 40af 2bbe a2fb cbbd
00000330: 9190 6fbe 5837 053e c93b c5bd ff2c 763e
00000340: aec8 1f3e 85f7 d13d 904e 0fbd 861b 99bd
00000350: dd41 5b3d e217 3cbe 66df 97bd fadb ce3b
00000360: 9997 14be 82a2 01be 7419 653e bcdd 25be
00000370: bd4b 11bd ee1c 7f3e 6579 603c 0a0a cbbd
00000380: 3727 62be 8354 313e 03fa f9bd 60e2 9a3c
00000390: 8542 ba3b 47b3 273c 9514 453d d6e4 283e
000003a0: f52c ce3c 5279 673e 4dbd 523e acdc 3ebe
000003b0: 76b5 f03d 6f1a e2bd 8d7b bcbd 433e ae3d
000003c0: 45e1 c13d 2928 193e 15fd 28bc 541f a5bc
000003d0: 92f1 733d 3e47 7dbe cd70 b53d 4ef2 66be
000003e0: a245 fd39 9db1 05be 0a2a c7bd ccf3 cb3d
000003f0: 43c6 b73d 23d6 c2bd d75a 1fbe 0dfc 9dbd

bias f4 [32]
0.16498505 -0.13102192 -0.10089775 -0.034989547 0.18771632 0.22338596 0.015858572 0.016643431
-0.2895792 0.03960977 -0.14810677 -0.006966891 -0.01645896 0.15046513 -0.2556901 0.0010145687
-0.10168052 -0.012612299 -0.3061673 0.23751606 0.18336388 0.06570301 0.02692187 -0.20043057
-0.01892889 0.0061321557 -0.089698315 0.13514315 0.066574395 0.10182935 -0.112485126 0.03490697
00000000: d7f1 283e 9c2a 06be 7ba3 cebd 3351 0fbd
00000010: b538 403e 4abf 643e d6e9 813c ce57 883c
00000020: ba43 94be db3d 223d 4da9 17be 844a e4bb
00000030: f1d4 86bc 8813 1a3e d0e9 82be 47fb 843a
00000040: e03d d0bd d1a3 4ebc f6c1 9cbe 6937 733e
00000050: bec3 3b3e 4d8f 863d 418b dc3c ac3d 4dbe
00000060: c210 9bbc 40f0 c83b c0b3 b7bd f762 0a3e
00000070: 2858 883d e88b d03d 9a5e e6bd 9cfa 0e3d

weight f4 [64, 32, 3, 3]
-0.11646975 -0.06038046 0.029189829 0.05871796 0.03249259 0.22514221 -0.0016767876 0.032170314
0.12850165 0.08108237 -0.08155379 0.010230542 0.007820034 -0.17485441 -0.023890944 -0.015022878
-0.072977744 -0.002607095 0.18447706 0.101174146 -0.12807006 -0.049743615 0.01605557 -0.078482844
0.0841598 -0.19775787 -0.0571786 -0.14742231 0.09298256 -0.046809576 -0.06921212 -0.06087685
-0.017567657 0.02251302 -0.049579617 -0.109269716 -0.14178745 0.110298604 -0.023263633 0.22608362
0.05088116 -0.046695184 -0.3834093 -0.022030482 0.17730382 -0.2868984 -0.2419805 -0.035719708
0.37869787 0.19888736 0.13549113 -0.00606614 0.12624222 -0.22946866 -0.02098264 -0.06340305
0.14703298 -0.066558264 -0.15113585 -0.104574 -0.12659177 0.011168063 0.18681177 0.0013822059
-0.006637496 0.1913766 0.13821082 -0.044136964 -0.13567354 0.061388947 -0.24294202 -0.02553891
-0.050762344 0.12263233 -0.06428428 -0.13973135 0.11481078 0.023212083 -0.0850956 -0.07462738
0.10561662 0.06429001 -0.09030359 0.107616566 0.01266895 -0.03418141 0.052962255 0.054933913
-0.05567817 -0.024638362 0.050304145 -0.004591143 -0.099905424 0.20045052 0.06304343 0.06631824
0.22178431 0.10081952 0.052989986 -0.0124483 0.008508195 0.018764725 -0.044378147 -0.20862156
0.06045697 -0.097053386 -0.2093388 -0.12525696 -0.13643557 -0.053082697 0.05074336 0.0096546095
-0.11198282 -0.094542354 0.00399078 0.080686875 0.06640401 -0.051522285 0.075567864 0.11974435
-0.048904277 0.1097329 0.06060369 0.13975848 0.04672548 0.026383864 -0.0552809 -0.07424911
0.08703554 0.12426729 0.061925713 0.27275217 0.10604571 0.080602445 0.270943 -0.080912136
0.016050994 0.22574061 -0.044635992 -0.17904255 0.04309979 0.107288204 -0.0005345159 -0.07247484
0.012627383 0.10016286 0.13662367 0.037964433 -0.059045028 -0.05886345 0.06680175 -0.17255905
-0.104236506 -0.05955506 0.057594445 0.08441344 -0.14228874 0.05119485 0.07676646 -0.1742009
-0.014244441 -0.0007850223 -0.09277696 -0.004586057 -0.019463314 -0.06756409 -0.0006579255 0.13910326
0.17004739 0.01929422 -0.08233816 0.21777289 0.16364545 0.14916319 0.07313728 0.066827096
0.10156327 -0.055992756 -0.062926754 -0.115454465 0.033204015 0.09856408 -0.020726157 0.022642395
0.34199965 0.2727669 -0.050517906 0.29776272 0.35206628 0.035316236 -0.10234504 0.21429093
0.06705361 0.04987398 -0.11958691 0.13489264 -0.17252141 -0.0064829476 0.025804684 0.027631285
0.08855375 -0.06055634 0.001715858 -0.015088156 -0.063538164 -0.06214884 0.12652959 -0.18099591
0.034572925 0.43181822 -0.104651265 -0.24961746 0.038618192 -0.21064836 0.0034867034 -0.121181704
-0.015776575 -0.09923522 0.021093851 0.0642878 -0.0083957575 0.027174648 -0.18698499 -0.04690189
0.04176908 -0.15684254 0.0026055095 0.095202595 -0.14054659 0.12832722 -0.055302143 0.061612282
0.20132588 -0.058673184 -0.003798148 0.13819398 0.032432105 0.07475642 0.016364565 0.08188769
-0.019885158 -0.11858891 0.019527042 -0.01382765 0.0395907 -0.04272354 -0.033672366 0.06615453
0.008686971 -0.012888645 -0.12377047 -0.045079924 -0.031078817 -0.24626732 0.13549408 -0.038191255
00000000: b187 eebd 8051 77bd 821f ef3c 3e82 703d
00000010: f316 053d ae8b 663e a8c7 dbba 05c5 033d
00000020: f095 033e 830e a63d ac05 a7bd 019e 273c
00000030: 9a1f 003c 090d 33be f1b6 c3bc 8422 76bc
00000040: 5b75 95bd ccdb 2abb 8ee7 3c3e 6434 cf3d
00000050: cc24 03be f6bf 4bbd f986 833c 9dbb a0bd
00000060: f95b ac3d 0a81 4abe 1c34 6abd e0f5 16be
00000070: a46d be3d 66bb 3fbd 15bf 8dbd 015a 79bd
00000080: 0cea 8fbc 3a6d b83c ff13 4bbd cdc8 dfbd
00000090: bb30 11be 3ce4 e13d 6093 bebc 7782 673e
000000a0: c368 503d 7343 3fbd 394e c4be 4579 b4bc
000000b0: 228f 353e 59e4 92be bcc9 77be d44e 12bd
000000c0: b0e4 c13e 21a9 4b3e 30be 0a3e 78c6 c6bb
000000d0: a445 013e d5f9 6abe c9e3 abbc 75d9 81bd
000000e0: d08f 163e b34f 88bd 5bc3 1abe e52a d6bd
000000f0: 46a1 01be 40fa 363c 964b 3f3e 222b b53a
00000100: 5a7f d9bb 3af8 433e 2387 0d3e f6c8 34bd
00000110: 01ee 0abe fa72 7b3d cbc5 78be fa36 d1bc
00000120: 2dec 4fbd a926 fb3d 7aa7 83bd bc15 0fbe
00000130: ea21 eb3d 4427 be3c 9a46 aebd 3dd6 98bd
00000140: 874d d83d 7baa 833d 17f1 b8bd 1366 dc3d
00000150: 6d91 4f3c ce01 0cbd f3ee 583d 6202 613d
00000160: cb0e 64bd 64d6 c9bc b80b 4e3d 4d71 96bb
00000170: 379b ccbd e742 4d3e ea1c 813d dbd1 873d
00000180: 6d1b 633e 777a ce3d 070c 593d f4f3 4bbc
00000190: f565 0b3c 7bb8 993c dcc5 35bd e4a0 55be
000001a0: baa1 773d edc3 c6bd e95c 56be 5c43 00be
000001b0: c4b5 0bbe 3e6d 59bd 45d8 4f3d 5e2e 1e3c
000001c0: 4057 e5bd 6c9f c1bd 17c5 823b 293f a53d
000001d0: d3fe 873d 0809 53bd 53c3 9a3d 873c f53d
000001e0: da4f 48bd a5bb e03d 933b 783d d91c 0f3e
000001f0: 3863 3f3d f922 d83c 3a6e 62bd eb0f 98bd
00000200: b03f b23d d97f fe3d d1a5 7d3d 2ca6 8b3e
00000210: 7e2e d93d e512 a53d 0ab9 8a3e 43b5 a5bd
00000220: 607d 833c 8c28 673e 3bd4 36bd ee56 37be
00000230: 6889 303d ebb9 db3d c11e 0cba b06d 94bd
00000240: 15e3 4e3c 2f22 cd3d 13e7 0b3e 9880 1b3d
00000250: 33d9 71bd cd1a 71bd 5bcf 883d 52b3 30be
00000260: f379 d5bd 02f0 73bd 27e8 6b3d f4e0 ac3d
00000270: 24b4 11be b1b1 513d bc37 9d3d b961 32be
00000280: 8461 69bc f4c9 4dba d901 bebd a246 96bb
00000290: 8771 9fbc 0b5f 8abd a278 2cba 1671 0e3e
000002a0: e720 2e3e e90e 9e3c e9a0 a8bd dbff 5e3e
000002b0: ac92 273e 3cbe 183e 00c9 953d a5dc 883d
000002c0: 6700 d03d a958 65bd bedf 80bd 6473 ecbd
000002d0: ef00 083d f7db c93d e7c9 a9bc 8b7c b93c
000002e0: 941a af3e 1aa8 8b3e ddeb 4ebd 5b74 983e
000002f0: 0842 b43e c2a7 103d 479a d1bd 156f 5b3e
00000300: 6753 893d a948 4c3d fbe9 f4bd 4c21 0a3e
00000310: 74a9 30be e86e d4bb 5864 d33c 015b e23c
00000320: ab5b b53d ed09 78bd a4e6 e03a 5034 77bc
00000330: 4c20 82bd c88f 7ebd f990 013e fe56 39be
00000340: 579c 0d3d 4717 dd3e 6753 d6bd b89b 7fbe
00000350: 1c2e 1e3d 34b4 57be 2d81 643b 1d2e f8bd
00000360: e03d 81bc d63b cbbd 03cd ac3c 52a9 833d
00000370: 5c8e 09bc 5e9d de3c fe78 3fbe 321c 40bd
00000380: 0e16 2b3d 559b 20be 32c1 2a3b 94f9 c23d
00000390: 72eb 0fbe 3668 033e 8084 62bd 295d 7c3d
000003a0: 5f28 4e3e 4b53 70bd 59ea 78bb b982 0d3e
000003b0: 87d7 043d e519 993d fb0e 863c bcb4 a73d
000003c0: 33e6 a2bc bede f2bd 2df7 9f3c 5e8d 62bc
000003d0: dc29 223d e1fe 2ebd 09ec 09bd 077c 873d
000003e0: cc53 0e3c e52a 53bc 5f7b fdbd baa5 38bd
000003f0: 0199 febc 802d 7cbe f6be 0a3e 6f6e 1cbd

bias f4 [64]
0.036531914 0.034698345 -0.076396555 -0.017728265 -0.02261499 -3.2594784e-24 -8.003586e-27 -0.03795706
-0.074392505 -4.1474067e-07 0.020831743 0.03171258 0.026903994 0.039177228 -0.09531169 0.017372245
0.024725148 0.009525104 0.016202394 0.029835718 -0.02155755 -0.018248662 -0.032147933 -0.029978005
0.0102376165 0.02971081 -0.015084475 -0.012707597 0.023344144 0.057533883 0.039508067 -0.026584087
0.053353388 0.032240342 0.05951808 -0.1042479 0.013769876 0.0077282107 -0.03249053 -0.0008511774
-0.06665103 -0.03547672 0.0236792 -0.024170393 0.0025986705 0.034046356 0.04391181 0.029397441
-0.043628205 -0.032506 -9.684292e-27 -0.035422087 -0.072632015 -0.07443945 -2.9773526e-21 0.058130205
0.08255744 0.002602859 -0.062368263 -0.032839745 -0.04686461 0.031222273 -0.04372109 -0.024936907
00000000: 7da2 153d da1f 0e3d cc75 9cbd de3a 91bc
00000010: 1243 b9bc 9f30 7c98 0187 1e94 dd78 1bbd
00000020: 195b 98bd 86a9 deb4 55a7 aa3c 0de5 013d
00000030: c465 dc3c 4d78 203d c632 c3bd 3d50 8e3c
00000040: 658c ca3c 2f0f 1c3c e2ba 843c 096a f43c
00000050: 7699 b0bc 387e 95bc 8dad 03bd 6f94 f5bc
00000060: adbb 273c 1664 f33c e024 77bc 8633 50bc
00000070: 383c bf3c a6a8 6b3d 36d3 213d dfc6 d9bc
00000080: 1589 5a3d 730e 043d 3bc9 733d ec7f d5bd
00000090: 0c9b 613c ee3c fd3b ca14 05bd 8c21 5fba
000000a0: 5680 88bd 0a50 11bd e2fa c13c fd00 c6bc
000000b0: 754e 2a3b 3174 0b3d dfdc 333d e7d2 f03c
000000c0: 7db3 32bd 0325 05bd 32d1 3f94 c016 11bd
000000d0: 18c0 94bd b673 98bd 60f6 609d f019 6e3d
000000e0: e013 a93d ba94 2a3b dd75 7fbd f882 06bd
000000f0: 1bf5 3fbd dac5 ff3c e314 33bd 7c48 ccbc

weight f4 [32, 64, 3, 3]
-0.06502207 0.022103842 -0.016448833 0.062456615 0.06644204 -0.07993945 0.26256916 -0.06789986
-0.08725301 0.12278966 0.074362725 -0.05533481 -0.12245563 0.006812375 0.0811324 0.16562483
0.0534444 -0.019578245 0.023453774 0.07277894 0.02327546 0.0068742284 0.18462838 0.05898719
-0.12322237 0.046141207 -0.1152759 -0.3173864 -0.102133684 0.12404759 -0.12218312 0.28138852
0.062917136 0.25390697 0.31819668 -0.04342227 -0.177826 0.33193678 -0.23240003 0.56869125
0.41001874 0.43556228 0.70061374 0.36833352 0.48956868 4.9755215e-35 -4.4918922e-38 -2.1715587e-38
1.6591515e-34 5.87365e-38 3.0006934e-38 1.2213164e-34 -1.392943e-38 -1.313398e-39 1.155464e-37 3.3491717e-35
1.5382365e-34 4.946434e-37 2.6503293e-34 1.4351717e-34 5.7491008e-36 1.020317e-33 1.5037526e-34 -0.018524826
-0.021856071 -0.10171633 -0.032395232 0.01272002 -0.089136176 -0.17975941 -0.0067963144 -0.1117326
-0.48863816 -0.96727663 -0.3474334 0.14680777 -0.40730348 0.076253235 0.009409685 0.14152773
0.05670047 6.8287104e-10 1.0866131e-09 1.9663042e-09 7.931438e-10 1.0165178e-09 2.629154e-09 7.802614e-10
5.357914e-10 2.0120567e-09 0.16475187 -0.045183327 0.12649299 -0.08007455 -0.10469681 0.038287118
-0.0056305826 -0.041031282 0.16144627 0.18256316 0.087384835 -0.030721193 0.06577728 -0.031676073
0.010141162 -0.008137351 0.043841857 -0.05125979 0.017364591 0.10355206 0.0187116 -0.0043001184
0.04269957 0.03633801 -0.17078142 0.042791914 0.004377191 -0.1303537 -0.0926794 -0.11815847
-0.0050321696 -0.079449154 -0.18156669 0.13972478 0.102460414 -0.10996729 0.033802014 0.07955395
-0.040393688 0.03300255 0.02176172 -0.010611426 -0.008449804 -0.12104706 0.04584673 -0.12692417
-0.03274051 0.036079302 -0.04201583 0.012128904 0.0023276296 -0.07613424 0.016088374 0.003473567
0.02779833 0.05552725 0.091922835 0.0016606804 0.10871004 0.19255753 0.07865629 0.13488369
0.21738444 0.084185146 0.18704455 0.06864203 -0.2681571 -0.013203462 0.09658422 0.025347056
-0.110879235 -0.021626415 0.15763426 -0.00012400627 -0.046093807 0.058563408 -0.13374688 -0.09298421
0.10417225 -0.12424263 -0.062243503 0.038993333 -0.00038123826 0.07614515 -0.11760947 0.017110892
0.037180454 -0.06821536 -0.015070774 0.025591379 0.32554492 -0.23174877 -0.32197043 -0.17285745
0.024183355 0.23726314 -0.19427042 0.17079191 0.1550437 0.017035682 0.11231372 0.015400962
-0.10537037 -0.06812206 -0.00012238458 0.029252233 0.012308619 0.07058885 0.04713016 0.0329434
0.027283022 -0.0601249 0.14761175 -0.038875017 -0.14098299 -0.031986672 -0.048049122 0.03545294
-0.008176147 0.045542814 0.09869516 0.030972922 0.103395335 0.0022816756 0.010351435 0.063861184
-0.005742863 -0.02690303 -0.016429206 -0.095380105 -0.13879116 -0.004406567 0.090170294 0.057368338
0.0017895764 0.14413436 -0.03323489 0.084948815 0.04495849 -0.057920955 -0.097222544 0.120194905
-0.022839595 -0.023881448 0.120128416 0.07239364 0.05835618 0.25893053 0.10369014 0.3881516
0.20335577 0.22425705 0.027415587 0.003159454 -0.12551692 -0.11224651 0.037837375 0.05491374
-0.0021493598 -0.033124827 0.033090703 -0.17902115 -0.07305153 0.12567641 0.084918074 -0.15310054
00000000: 4b2a 85bd 1e13 b53c b4bf 86bc 82d2 7f3d
00000010: c412 883d 4bb7 a3bd 776f 863e 150f 8bbd
00000020: b5b1 b2bd 2579 fb3d 7c4b 983d c1a6 62bd
00000030: 04ca fabd 583a df3b be28 a63d 8e99 293e
00000040: 84e8 5a3d 8e62 a0bc 2122 c03c 200d 953d
00000050: 2dac be3c 3541 e13b 390f 3d3e 8d9c 713d
00000060: 035c fcbd 90fe 3c3d c515 ecbd 7880 a2be
00000070: 772b d1bd aa0c fe3d 253b fabd 2812 903e
00000080: b3da 803d 1800 823e adea a23e 8ddb 31bd
00000090: 0518 36be 9ef3 a93e 46fa 6dbe c095 113f
000000a0: faed d13e 0502 df3e 6c5b 333f 3696 bc3e
000000b0: bfa8 fa3e a545 8406 d78f 7481 3976 ec80
000000c0: 008a 5c07 5ee5 9f01 905f 2301 3e57 2207
000000d0: 95ad 9780 384d 0e80 0b46 1d02 9012 3206
000000e0: 7a77 4c07 8451 2803 0425 b007 5dc4 3e07
000000f0: 2a8a f404 7c87 a908 0de2 4707 60c1 97bc
00000100: 810b b3bc a750 d0bd ddb0 04bd a167 503c
00000110: 078d b6bd da12 38be 9eb3 debb 10d4 e4bd
00000120: c82e fabe 719f 77bf cae2 b1be c754 163e
00000130: 158a d0be a82a 9c3d 142b 1a3c a5ec 103e
00000140: c13e 683d c7b4 3b30 cd57 9530 971f 0731
00000150: 8804 5a30 8ab5 8b30 91ac 3431 047a 5630
00000160: f846 1330 7a44 0a31 b7b4 283e 2712 39bd
00000170: 6187 013e 20fe a3bd 486b d6bd f4d2 1c3d
00000180: c080 b8bb 6b10 28bd 2c52 253e d6f1 3a3e
00000190: d2f6 b23d 03ab fbbc 3db6 863d c5be 01bd
000001a0: 1e27 263c 8652 05bc 8593 333d c9f5 51bd
000001b0: 3040 8e3c 1a13 d43d 1249 993c 02e8 8cbb
000001c0: bfe5 2e3d 2ad7 143d 53e1 2ebe 9346 2f3d
000001d0: 8a6e 8f3b 717b 05be b3ce bdbd 11fd f1bd
000001e0: e6e4 a4bb 3db6 a2bd 9eec 39be 0314 0f3e
000001f0: c4d6 d13d 8836 e1bd fb73 0a3d 2eed a23d
00000200: da73 25bd af2d 073d a245 b23c 8cdb 2dbc
00000210: 0c71 0abc 85e7 f7bd c8c9 3b3d 69f8 01be
00000220: ea1a 06bd e4c7 133d ca18 2cbd 50b8 463c
00000230: 258b 183b 45ec 9bbd c4cb 833c c9a4 633b
00000240: 53b9 e33c 8b70 633d 0a42 bc3d 30ab d93a
00000250: 5fa3 de3d cd2d 453e 8d16 a13d f31e 0a3e
00000260: 079a 5e3e 4369 ac3d 9b88 3f3e 3194 8c3d
00000270: e34b 89be 5553 58bc f3cd c53d a1a4 cf3c
00000280: a714 e3bd e129 b1bc e06a 213e ae07 02b9
00000290: dccc 3cbd 2fe0 6f3d f1f4 08be 816e bebd
000002a0: 4358 d53d ec72 febd 0bf3 7ebd 79b7 1f3d
000002b0: efe0 c7b9 fdf1 9b3d 3cdd f0bd 242c 8c3c
000002c0: 884a 183d 7fb4 8bbd 68eb 76bc 03a5 d13c
000002d0: d3ad a63e 8d4f 6dbe 4fd9 a4be 8b01 31be
000002e0: 2c1c c63c 1cf5 723e d3ee 46be 13e4 2e3e
000002f0: c7c3 1e3e 6a8e 8b3c bc04 e63d 5154 7c3c
00000300: 6ccc d7bd 9483 8bbd 5c54 00b9 61a2 ef3c
00000310: 17aa 493c e390 903d 8e0b 413d a9ef 063d
00000320: a580 df3c 8745 76bd 8927 173e 693b 1fbd
00000330: d85d 10be 7504 03bd 28cf 44bd 1a37 113d
00000340: 3ff5 05bc 1a8b 3a3d b020 ca3d edba fd3c
00000350: efc0 d33d 2a88 153b 1199 293c a7c9 823d
00000360: a02e bcbb be63 dcbc 8b96 86bc a556 c3bd
00000370: 451f 0ebe f764 90bb 34ab b83d 10fb 6a3d
00000380: 3890 ea3a f597 133e 4f21 08bd a5f9 ad3d
00000390: 6526 383d 863e 6dbd 9d1c c7bd bf28 f63d
000003a0: 1a1a bbbc 07a3 c3bc e305 f63d 1e43 943d
000003b0: e406 6f3d 8b92 843e 7f5b d43d cebb c63e
000003c0: 7f3c 503e a4a3 653e a796 e03c d80e 4f3b
000003d0: 8287 00be 80e1 e5bd 5dfb 1a3d 3bed 603d
000003e0: 46dc 0cbb e6ad 07bd 1e8a 073d 5251 37be
000003f0: 0a9c 95bd 51b1 003e 87e9 ad3d 63c6 1cbe

bias f4 [32]
-0.06575847 -0.009639665 -3.5035222e-35 0.08141674 -0.05148948 -0.09033731 -0.0045659062 -0.030043287
0.110075265 -0.037640885 -2.3195931e-31 3.641338e-05 -0.012900621 0.04100668 -0.15399283 0.05324341
-3.4438207e-26 -0.1054484 -0.009897705 0.05307937 0.0447767 0.09587046 0.027280537 -0.01793978
-0.09616693 0.07762752 -6.826719e-35 0.020268472 -0.09359804 -0.013005762 -9.4242516e-30 0.025681853
00000000: 60ac 86bd afef 1dbc 7947 3a86 d2bd a63d
00000010: a2e6 52bd c502 b9bd 999d 95bb 571d f6bc
00000020: 246f e13d 542d 1abd da8c 968c 92ba 1838
00000030: 205d 53bc 9ff6 273d 4cb0 1dbe c315 5a3d
00000040: 9d87 2a95 55f5 d7bd fc29 22bc c169 593d
00000050: c667 373d bb57 c43d 6f7b df3c 72f6 92bc
00000060: 2bf3 c4bd 2dfb 9e3d 3e7c b586 110a a63c
00000070: 54b0 bfbd 1f16 55bc 8325 3f8f c062 d23c

weight f4 [1, 32, 1, 1]
0.45337716 0.40088728 -1.4382298e-28 -0.29662842 -0.80282 0.42391875 -0.7974289 0.36160594
-0.22458403 0.09518975 -1.9349299e-26 -0.4978539 -0.5917544 -0.12607002 0.5289601 -0.15699823
-2.0978336e-22 0.503518 -0.47653955 -0.73891515 -0.271707 -0.2652818 -0.47479212 -0.68799007
0.5207471 -1.2032446 2.439661e-34 -0.43235683 0.43250105 0.12802167 -9.161972e-28 0.08776637
00000000: 0d21 e83e 1941 cd3e 3a51 3691 aedf 97be
00000010: 9d85 4dbf e10b d93e 4d24 4cbf 6a24 b93e
00000020: 5bf9 65be d8f2 c23d 4da0 bf94 b5e6 febe
00000030: 377d 17bf 8018 01be ee69 073f 25c4 20be
00000040: ce9c 7d9b 8ee6 003f fefc f3be 8b29 3dbf
00000050: 2e1d 8bbe 04d3 87be f417 f3be 1e20 30bf
00000060: af4f 053f eb03 9abf ae24 a207 e05d ddbe
00000070: c770 dd3e 1d18 033e 602d 9192 dbbe b33d
